Model: "sequential"
_________________________________________________________________
Layer (type)                 Output Shape              Param #   
=================================================================
embedding (Embedding)        (None, 200, 100)          1000000   
_________________________________________________________________
conv1d (Conv1D)              (None, 198, 32)           9632      
_________________________________________________________________
max_pooling1d (MaxPooling1D) (None, 99, 32)            0         
_________________________________________________________________
conv1d_1 (Conv1D)            (None, 97, 64)            6208      
_________________________________________________________________
flatten (Flatten)            (None, 6208)              0         
_________________________________________________________________
dense (Dense)                (None, 16)                99344     
_________________________________________________________________
dense_1 (Dense)              (None, 3)                 51        
=================================================================
Total params: 1,115,235
Trainable params: 115,235
Non-trainable params: 1,000,000
_________________________________________________________________
Epoch 1/20
 1/32 [..............................] - ETA: 35s - loss: 2.1054 - accuracy: 0.3125
…
